…
  =============================
                                  \
                                   \
                                     ^__^
                                     (oo)\_______
                                     (__)\       )\/\
                                         ||----w |
                                         ||     ||

Model: &quot;classify_single&quot;
_________________________________________________________________
Layer (type)                 Output Shape              Param #
=================================================================
embedding_1 (Embedding)      (None, 100, 300)          18300
_________________________________________________________________
conv1d_1 (Conv1D)            (None, 96, 600)           900600
_________________________________________________________________
max_pooling1d_1 (MaxPooling1 (None, 48, 600)           0
_________________________________________________________________
conv1d_2 (Conv1D)            (None, 47, 600)           720600
_________________________________________________________________
max_pooling1d_2 (MaxPooling1 (None, 1, 600)            0
_________________________________________________________________
flatten_1 (Flatten)          (None, 600)               0
_________________________________________________________________
gaussian_noise_1 (GaussianNo (None, 600)               0
_________________________________________________________________
dropout_1 (Dropout)          (None, 600)               0
_________________________________________________________________
dense_1 (Dense)              (None, 300)               180300
_________________________________________________________________
dense_2 (Dense)              (None, 5)                 1505
=================================================================
Total params: 1,821,305
Trainable params: 1,821,305
Non-trainable params: 0
_________________________________________________________________
Epoch 1/300
 - 4s - loss: 1.6090 - acc: 0.2205 - val_loss: 1.6088 - val_acc: 0.2176
Epoch 2/300
 - 2s - loss: 1.5968 - acc: 0.2536 - val_loss: 1.5963 - val_acc: 0.2464
Epoch 3/300
 - 2s - loss: 1.5914 - acc: 0.2634 - val_loss: 1.5900 - val_acc: 0.3040
…
